results/clinical/best_model.pt (torch, 3829 bytes, 3 tensors)

mlp.0.weight f4 [16, 16]
00000000: a99e 28bc ddcf 88bd 8fac 90bd 768b f7be
00000010: 9be4 45bf b649 b3be bd46 f73d 5abe 03be
00000020: 05cd 333f c749 0fbf cb98 ebbe e808 cabe
00000030: 6271 1fbe c857 1e3e 396f 1fbf bcbb 15bd
00000040: d124 df3e e4f2 b5bf 47c9 fd3f ee84 4a3f
00000050: 93de 9dbf 4217 1b40 3702 f5be fa2c 903d
00000060: f089 c1be 559f b0bf 31af 2a40 b6e3 58c0
00000070: f649 56bf 50cc 5dc0 7a50 7a3f d68f 36c0
00000080: 8948 09c0 2477 d3bf 96e8 e1bf 9ec1 723f
00000090: 0556 86bf 55d4 7dbf 4c9c ac3d 403a 00c0
000000a0: 0bdd 9cbd 2066 5abf 95b6 653f 791b 223e
000000b0: 32e1 953f 0b31 05bf b054 0140 b6e9 49bf
000000c0: 1c94 a5be 6b2e 65be ed41 253d 54e5 d9bd
000000d0: 244a ed3d 7ba8 b4be 8251 f33d a9c2 88be
000000e0: 7873 b5be f266 23be 99c5 6bbe 8ea6 d8bc
000000f0: 4870 9fbe c81f 7dbb 6a85 dcbd 6efd 02be
00000100: 03f6 70be 48bd edbb 9a90 5ebd 996c 1c3d
00000110: 3ce8 923d 60aa 7bbe 34d1 87be 9812 d93d
00000120: 8dac 37be ae95 5abe 9518 a8bd c0c8 f63d
00000130: 6a32 afbe 29cd 89be 87d4 a1be 9e66 5a3e
00000140: 8cdd e83e 4203 4e3f f533 8cbf ba99 12c0
00000150: 12b1 13c0 1584 813f 4d4f 1abe 46ab 853f
00000160: fdf1 3ac0 6d34 523e 12ad 39bf 6387 ab3f
00000170: c80b d7bf 4418 cfbe c347 ba3e ad59 0dbe
00000180: 96f1 1dbe b87c aebe 9377 963d 7ed8 60be
00000190: f878 933d 92eb 78be 6a7e a2be dde9 5fbe
000001a0: b25f ccbe 1891 723d 4c7c f9bc 6461 9abe
000001b0: c493 2e3d 3bd7 c4bd 1995 1fbb bfcf f33d
000001c0: e598 033d 0375 bdbd 14f0 febd d0a3 f1bc
000001d0: 8e58 51be 1a76 d93d 3162 b1be b72b 463c
000001e0: 264e 7bbe 257c 87be 6799 a3bd 3816 043e
000001f0: f783 c4bd 3f30 603d 3e66 e8bd e3a1 1fbe
00000200: 5d71 903f 3137 2b3f 9208 c0bf b074 1dbf
00000210: 1557 01c0 e327 48bf 5e02 a8bd 3126 053f
00000220: cf9d 42c0 8c65 083f b4e4 e7bd 5449 db3f
00000230: 7948 a0bf 1364 a8bd ce35 debe 59da 833e
00000240: 0eb4 003e 35e4 97bf bc77 ecbf 861c 0540
00000250: c72f 7fbf c4b3 4e3f 7ace 59bf 766d 47bf
00000260: d2c3 17bf 99fa 27c0 186b 643f fada afbd
00000270: 079b efbd 5227 01c0 c2a0 513f fc63 cd3e
00000280: 0e48 bcbd 9f77 bebc eb69 823d e0f6 27be
00000290: 842b 833d fe97 cdbc 1f10 92be d630 59be
000002a0: 0434 24be 7c9f ac3d c680 8bbd 5a2e 053e
000002b0: 8cac a5be b2e8 b3be c45e 9e3d ae6a 1ebe
000002c0: bc4f b7bd 74b7 49be 4c35 fdbd 30b6 b8bc
000002d0: 88ec bbbd 3000 98bd a429 c63d fc52 7e3e
000002e0: a073 093c f480 893d bac9 0bbe c03f d43c
000002f0: 9403 b5bd baaa 5dbe ba8c 1e3e 30fc a5bc
00000300: e37d 78be 95ce c6be 4d9f e93d 5c91 debd
00000310: 8666 3cbe 4fac f0bd dd47 17be 0799 553e
00000320: 7269 0abe a845 423d bdc2 75be f354 84be
00000330: 55fc 5bbe 7199 83be f926 543d 4249 953d
00000340: 9618 febd df11 16bd 5a2f 1abe 7b98 9cbe
00000350: 354e 553d 2027 7bbe ca6d a7be e8dc ddbd
00000360: 6f62 cdbd e52f 403e 74eb a0be 9aec 26be
00000370: 3f29 31bc ee2b 1fbe 9ad9 38be 39fc 543e
00000380: 9e33 65be 0026 523c 1c7a 8c3d 80a3 40bb
00000390: 44e3 c6bd c4ce 633e 6447 7ebe a0c8 553d
000003a0: 3815 c93d 06c6 00be 9c49 0abe 0081 193c
000003b0: 7432 83bd 5097 923d b83f 2c3d a008 ae3d
000003c0: 4b04 d53b efe9 36be c965 44be f6f7 ddbd
000003d0: b2be 013e 330d cfbe 29f5 373d da41 95bd
000003e0: 641f 54be e963 1e3e 439d a8be 9e1a 13be
000003f0: 50c8 83be 75da 08be 88e6 babd ab20 ccbd
-0.010291734 -0.06680272 -0.07064163 -0.48348588 -0.7730195 -0.35017174 0.12074039 -0.12865582
0.7023471 -0.5597195 -0.4601501 -0.3945992 -0.15570596 0.15463173 -0.6227909 -0.03655599
0.43582776 -1.4214749 1.982705 0.79109085 -1.2333549 2.4232945 -0.47853252 0.070398286
-0.3780055 -1.3798624 2.6669428 -3.3888984 -0.83706605 -3.4655952 0.9777905 -2.852529
-2.1450522 -1.6520734 -1.7649105 0.94826686 -1.0495001 -0.9915212 0.08428249 -2.0035553
-0.07659348 -0.8531208 0.89731723 0.15830792 1.1709349 -0.5202796 2.020794 -0.7887224
-0.3233956 -0.22380988 0.040346075 -0.10639444 0.11586407 -0.3528479 0.11880781 -0.26711014
-0.35439658 -0.1595724 -0.23024596 -0.026446607 -0.3114035 -0.003862368 -0.10767634 -0.12791988
-0.23531346 -0.00725523 -0.05433712 0.038189504 0.071732014 -0.24576712 -0.26526797 0.105992496
-0.17936917 -0.21346161 -0.08207814 0.12050009 -0.3421815 -0.26914337 -0.31607458 0.21328208
0.45481527 0.8047372 -1.0953356 -2.2906327 -2.3076825 1.0118433 -0.15069313 1.0442894
-2.9210198 0.20527811 -0.7252971 1.3400692 -1.680047 -0.404482 0.36382875 -0.1380374
-0.15424189 -0.34079528 0.07347026 -0.21957585 0.07200807 -0.24308613 -0.3173707 -0.21866556
-0.3991676 0.059220403 -0.030454777 -0.30152428 0.04262139 -0.096113645 -0.0024350344 0.11904859
0.032128233 -0.09250834 -0.12448135 -0.029497057 -0.20443937 0.10618229 -0.34645227 0.012095383
-0.2454153 -0.26461902 -0.079882436 0.12899101 -0.09595483 0.05473351 -0.11347626 -0.15589099
1.1284596 0.6688109 -1.5002615 -0.61506176 -2.02094 -0.7818586 -0.082035765 0.520114
-3.0408819 0.5327995 -0.113229185 1.7131753 -1.2522117 -0.08222213 -0.43400425 0.25752524
0.12568685 -1.1866518 -1.847404 2.079866 -0.9968228 0.8074305 -0.85080683 -0.779014
-0.59283173 -2.6246703 0.8922591 -0.08586688 -0.11699491 -2.018025 0.8188592 0.40115345
-0.09193431 -0.0232504 0.063678585 -0.16402769 0.06404784 -0.02509689 -0.28527924 -0.21210036
-0.16035467 0.08428857 -0.06811671 0.13005963 -0.32358205 -0.3513847 0.07732919 -0.15470383
-0.08950755 -0.19698888 -0.12363681 -0.022547811 -0.09175974 -0.07421911 0.09675911 0.24836344
0.008389384 0.06714049 -0.13651171 0.025909305 -0.08838573 -0.21647158 0.1548337 -0.020261854
-0.24266772 -0.38829485 0.11407337 -0.10867569 -0.18398485 -0.11751615 -0.14773507 0.20859157
-0.13516787 0.04742971 -0.24000068 -0.2584606 -0.21482976 -0.25703004 0.05179498 0.072893634
-0.12407033 -0.036638137 -0.15057126 -0.30585083 0.052076537 -0.24526644 -0.3270095 -0.1083315
-0.1002854 0.1876827 -0.31429636 -0.16301194 -0.0108130565 -0.15544102 -0.18051758 0.2079934
-0.22382972 0.012826443 0.06859228 -0.0029394329 -0.09711316 0.22246844 -0.24831921 0.052193284
0.098185 -0.1257554 -0.13504642 0.009369135 -0.064061075 0.07157767 0.042052954 0.08497739
0.006500756 -0.17862676 -0.19179453 -0.108383104 0.126704 -0.40439758 0.044911537 -0.07287951
-0.207151 0.154678 -0.3293248 -0.14365622 -0.25738764 -0.13364585 -0.091260016 -0.099671684

mlp.0.bias f4 [16]
00000000: 6193 3ebf 24bf 9b3e 72df 0d40 5041 c73d
00000010: 3a76 8bbd ec24 d13f 7785 993d 713a 7abe
00000020: d8dd df3f bd3a d63e a0d3 f3bd 7279 27be
00000030: 0537 0f3c 6af0 84bd c82b bbbd 3192 0abe
-0.7444363 0.30419266 2.216763 0.09729254 -0.06809659 1.6339393 0.074961595 -0.24436356
1.7489576 0.4184169 -0.11905599 -0.16354921 0.008741145 -0.06491168 -0.0913921 -0.1353233

mlp.2.weight f4 [1, 16]
00000000: f531 503d de08 91c0 d68a 68c0 ca63 a33c
00000010: 2834 1cbd a44f 6fbf 7767 053d 00cd fa3d
00000020: 8c47 45bf 1af3 c8bf 6f32 8a3d 4808 023e
00000030: eb28 98bd 5155 c43c 304d f83d aef8 dfbc
0.050828893 -4.5323324 -3.6334739 0.019945044 -0.038135678 -0.93480897 0.032569375 0.12246132
-0.77062297 -1.5699189 0.06747901 0.12698472 -0.074296795 0.023966463 0.12124097 -0.02734026
